app/src/main/assets/tiny_cnn-raw-no-gravity.tflite (tflite, 23836 bytes, 6 tensors)

model_1/dense_1/BiasAdd/ReadVariableOp/resource f4 [6]
0	0x3d49e645	0.049291868
1	0x3cc18078	0.023620829
2	0xbd8729b0	-0.06599748
3	0xbe892505	-0.26786056
4	0xbd880427	-0.06641417
5	0x3e71a33a	0.23597422

model_1/conv1d_3/BiasAdd/ReadVariableOp/resource f4 [48]
0	0x3e4f6167	0.20252
1	0xbebc177e	-0.36736673
2	0x3e367f5e	0.17822024
3	0xbe67e5c4	-0.22646242
4	0xbe7ccd11	-0.24687602
5	0xbdd39900	-0.10331917
6	0xbe0c58a3	-0.13705687
7	0xbe4ef514	-0.20210677
8	0x3ed1269c	0.4084977
9	0xbde4a941	-0.11165095
10	0x3e1f51e9	0.1555859
11	0x3efae62c	0.49003732
12	0x3e829b63	0.25509176
13	0x3d6a404c	0.057190225
14	0x3eb4f9ce	0.35346836
15	0x3ed91398	0.4239776
16	0x3ea9e555	0.3318278
17	0x3e181a4d	0.14853783
18	0x3e5e8470	0.21730208
19	0xbd3c4a22	-0.045969136
20	0xbe0fe6f0	-0.1405294
21	0x3eab13ef	0.33413646
22	0xbe73a752	-0.23794296
23	0x3ed02869	0.4065583
24	0x3e903801	0.28167728
25	0x3d8ddf6d	0.06927381
26	0x3e280c4f	0.16410945
27	0xbe275746	-0.16341886
28	0xbdb2aeb0	-0.08724725
29	0xbcbddb74	-0.023175932
30	0xbe27fb67	-0.16404496
31	0x3d36577f	0.044517037
32	0xbd9bef70	-0.076140285
33	0xbe5f5a11	-0.21811701
34	0xbe12e82e	-0.14346382
35	0xbe8a855a	-0.27054864
36	0xbe37d5fa	-0.1795272
37	0x3e7a2aaa	0.24430338
38	0xbe5656b3	-0.2093151
39	0x3cb1c447	0.021700038
40	0xbdf9be5d	-0.12194512
41	0x3e730450	0.23732114
42	0xbe850add	-0.2598485
43	0x3e5fcf77	0.21856485
44	0x3e4dc332	0.20093992
45	0x3cc50fd4	0.024055399
46	0x3d804920	0.062639475
47	0x3ea9a24f	0.33131644

model_1/conv1d_2/BiasAdd/ReadVariableOp/resource f4 [24]
0	0x3dca93cd	0.09891472
1	0xbe26dec1	-0.16295911
2	0xbd55ddc9	-0.052213464
3	0xbcbefe2e	-0.023314562
4	0xbc65db16	-0.014029285
5	0xbd291ad7	-0.041285362
6	0x3ee6cd85	0.45078674
7	0xbe4be51a	-0.19911614
8	0x3e83c488	0.2573588
9	0x3ee7b1a8	0.45252728
10	0xbd802593	-0.06257167
11	0x3f1e5ed8	0.6186347
12	0xbedc296d	-0.43000355
13	0xbe51211e	-0.2042279
14	0xbe3bade9	-0.1832806
15	0xbe3f8140	-0.18701649
16	0x3f138d78	0.5763774
17	0xbe5344a0	-0.20631647
18	0xbeabc768	-0.33550572
19	0xbe1c6cfe	-0.15275952
20	0xbe4b2096	-0.1983665
21	0xbe3660f1	-0.17810418
22	0xbe36b560	-0.17842627
23	0xbe9f5b2a	-0.3112424

model_1/dense_1/MatMul f4 [6, 48]
0	0x3ea42e86	0.32066745
1	0xbf3c1260	-0.7346554
2	0xbed26068	-0.41089177
3	0x3e26e07f	0.16296576
4	0x3e46808b	0.19384973
5	0x3e6fb193	0.23407583
6	0x3ea9f44d	0.331942
7	0xbe36fe16	-0.17870364
8	0xbdc030c0	-0.09384298
9	0x3e018ce8	0.12651408
10	0x3e91da92	0.28487068
11	0xbd27b193	-0.040940832
12	0x3e9eb523	0.3099757
13	0x3e61c9fb	0.22049706
14	0xbe379fff	-0.17932127
15	0x3e356221	0.17713214
16	0xbdcce288	-0.10004145
17	0xbed226da	-0.41045266
18	0x3e4f0f90	0.2022078
19	0xbe1751ae	-0.14777252
20	0x3e3938af	0.1808803
21	0xbe5a8642	-0.21340278
22	0xbe94be08	-0.29051232
23	0xbe6a27ba	-0.22866717
24	0xbe2522e5	-0.16126592
25	0xbed92a34	-0.4241501
26	0xbe8b9a59	-0.27266195
27	0x3ddd0425	0.10791806
28	0xbe55d963	-0.20883708
29	0x3da7712d	0.081758834
30	0x3eb1cd5e	0.34726995
31	0xbeef8fd0	-0.46789408
32	0xbee193eb	-0.44058165
33	0x3e379eb1	0.1793163
34	0x3e9ab31e	0.3021478
35	0xbea64cf9	-0.324806
36	0x3e8b7e21	0.27244666
37	0x3e44cd2c	0.19218892
38	0x3e9d25b2	0.30692822
39	0x3e75efb5	0.24017222
40	0xbb0f5c1b	-0.0021874967
41	0x3e618d5d	0.22026582
42	0xbf02ba28	-0.510653
43	0x3d1515ed	0.036397863
44	0x3dfc208e	0.12310897
45	0xbf33953f	-0.70149606
46	0x3ee0183e	0.43768495
47	0x3eb12c52	0.34604126
48	0xbe5309d2	-0.20609215
49	0xbdf3e541	-0.11908961
50	0x3ed5cc70	0.41757536
51	0x3e2ea3fd	0.17054744
52	0x3e3eef7e	0.18646047
53	0xbef73800	-0.48284912
54	0xbeb1332b	-0.3460935
55	0x3c897da1	0.016783537
56	0xbf511bad	-0.81682855
57	0x3e0e404c	0.13891715
58	0x3ef68bc5	0.4815351
59	0x3d261c4a	0.040554322
60	0xbf208590	-0.627038
61	0x3e9513b1	0.29116586
62	0x3e9e3610	0.3090062
63	0xbf88e96e	-1.0696237
64	0xbcffc074	-0.031219698
65	0x3e2479df	0.16062115
66	0xbf286eb7	-0.6579394
67	0xbee9edc8	-0.45689225
68	0xbe9ce78e	-0.30645412
69	0xbeb2d706	-0.34929675
70	0xbe98e003	-0.29858407
71	0x3e33eddf	0.1757121
72	0x3ec96b41	0.3933964
73	0x3e968a0f	0.29402205
74	0x3e6de601	0.23232271
75	0xbefcdd28	-0.4938748
76	0xbecbddf2	-0.39817768
77	0x3ecc5142	0.39905745
78	0x3da70cc0	0.08156729
79	0xbebdf74a	-0.3710273
80	0x3ee827fd	0.4534301
81	0xbe727124	-0.23675972
82	0x3c764297	0.015030525
83	0x3d1013c8	0.035175115
84	0x3ea05603	0.31315622
85	0xbf1f6cae	-0.6227521
86	0x3cc8c17a	0.02450632
87	0x3efc40ba	0.49268132
88	0x3d34baf3	0.0441236
89	0x3eff6d48	0.49888062
90	0xbe17675f	-0.14785527
91	0x3d4f4797	0.050605383
92	0x3eaa8b31	0.3330932
93	0xbed52aa2	-0.4163409
94	0xbef174c5	-0.471594
95	0x3ad49c64	0.0016220924
96	0xbf091adf	-0.5355663
97	0xbee15442	-0.44009596
98	0xbec09a7c	-0.37617862
99	0x3e2abbda	0.16673222
100	0x3e4522be	0.19251534
101	0x3e690255	0.22754796
102	0xbe078595	-0.13234551
103	0x3d4ffe1f	0.050779458
104	0x3f55cb45	0.8351329
105	0x3e0542a9	0.1301371
106	0x3e6bfd57	0.2304586
107	0xbf819ffe	-1.0126951
108	0x3f1d68d4	0.6148808
109	0x3e9c83dd	0.30569354
110	0x3db6196e	0.08891569
111	0x3e60783c	0.21920866
112	0xbf3e3e55	-0.7431386
113	0xbe5fd805	-0.21859749
114	0x3f4669d3	0.77505225
115	0x3f2bc9cb	0.67104787
116	0x3df3d88c	0.119065374
117	0x3e4f42f8	0.2024039
118	0xbe3c229c	-0.18372577
119	0x3d7a9b50	0.061183274
120	0x3ec77961	0.38959792
121	0x3eb06876	0.34454697
122	0x3ea4a77c	0.3215903
123	0xbe0efb71	-0.13963105
124	0x3ea2408c	0.3168987
125	0x3ebb4ef5	0.36583677
126	0xbe6069e7	-0.21915399
127	0x3f42eccd	0.7614258
128	0xbe117308	-0.14204037
129	0xbeb53316	-0.35390538
130	0xbf219b40	-0.6312752
131	0x3f0dea1f	0.55435365
132	0xbe911819	-0.28338698
133	0xbe84a3c4	-0.25906193
134	0xbf1a11e0	-0.60183525
135	0x3e575f82	0.21032527
136	0xbc355a50	-0.011068895
137	0xbeab258f	-0.33427092
138	0xbf0e532f	-0.5559568
139	0xbf09f024	-0.5388205
140	0xbea91c22	-0.33029276
141	0x3f2dd876	0.6790842
142	0x3d0f7c48	0.035030633
143	0xbf77862d	-0.9668911
144	0xbf1b1124	-0.6057303
145	0x3f31d329	0.6946283
146	0xbf317143	-0.6931345
147	0x3e5ee9fe	0.21768948
148	0x3e70e7f5	0.23525985
149	0x3eda760e	0.42668194
150	0x3efb1f7c	0.49047458
151	0x3ea2c0b7	0.31787655
152	0xbf496cad	-0.7868145
153	0x3e2507d7	0.16116272
154	0xbe7dac1a	-0.24772683
155	0xbf906a5d	-1.128246
156	0xbec9eb75	-0.39437452
157	0xbe9be013	-0.30444393
158	0xbe28c161	-0.16480018
159	0xbf40ff31	-0.7538939
160	0xbf6c7766	-0.9236969
161	0xbe5d4b1d	-0.21610685
162	0xbe0d5c1c	-0.13804668
163	0xbf070a6e	-0.5275029
164	0x3ec7322c	0.38905466
165	0xbf71c6e4	-0.9444411
166	0x3efc7291	0.49306157
167	0xbf2e310a	-0.6804358
168	0xbe9ee538	-0.31034255
169	0xbe598fda	-0.21246281
170	0xbf6bcf29	-0.92112976
171	0x3e9897f2	0.29803425
172	0x3e733172	0.2374933
173	0xbf028561	-0.5098477
174	0xbef04232	-0.46925503
175	0xbf1ce2d8	-0.61283636
176	0x3e000fc4	0.12506014
177	0x3d0a33a7	0.033740666
178	0xbbce5dd9	-0.0062978086
179	0xbf3c7a7f	-0.73624414
180	0xbec620d4	-0.3869692
181	0xbdd320b7	-0.10308974
182	0x3e1fe94c	0.1561634
183	0xbe9b56f4	-0.30339777
184	0x3db2b04c	0.08725032
185	0xbe8e3a46	-0.27778834
186	0x3f0cece5	0.5504897
187	0xbf268165	-0.6504119
188	0xbf247a99	-0.6424957
189	0xbe5c0afc	-0.21488565
190	0xbe45ebc0	-0.19328213
191	0x3eaeec04	0.3416444
192	0x3efad8e2	0.48993593
193	0xbe0cbd51	-0.13744093
194	0x3ed0e724	0.40801346
195	0xbeb75c07	-0.358124
196	0xbe86072e	-0.26177353
197	0xbf4d00c5	-0.800793
198	0x3d8ec9cd	0.06972084
199	0xbeded7e6	-0.43524092
200	0xbed2aac7	-0.41145918
201	0xbf3011b5	-0.6877702
202	0xbf3eb94f	-0.7450151
203	0xbf9380a9	-1.1523639
204	0xbe62eaf6	-0.22159943
205	0xbf565f5d	-0.8373926
206	0xbf43e0b8	-0.7651477
207	0xbea89ba2	-0.32931238
208	0x3e81c06c	0.2534212
209	0x3e4999b3	0.19687538
210	0xbedbb485	-0.42911163
211	0x3ec44eff	0.3834152
212	0xbf135e86	-0.57566106
213	0x3ec460a1	0.38354972
214	0xbe59e4ce	-0.21278688
215	0xbf52b76c	-0.8231113
216	0xbf013544	-0.504719
217	0x3eec4d5f	0.4615278
218	0x3eb99a74	0.3625065
219	0xbf0a0d8e	-0.5392693
220	0xbf2043e9	-0.6260362
221	0xbf54bf77	-0.8310465
222	0x3ee47b01	0.44625095
223	0x3d303790	0.04302174
224	0xbee3ed5a	-0.44517022
225	0x3e7837a2	0.24239972
226	0x3e109359	0.14118709
227	0x3f179953	0.5921833
228	0x3ef7da26	0.48408622
229	0x3f1b07c7	0.6055874
230	0x3e394ed8	0.18096483
231	0xbeb881b8	-0.36036468
232	0xbf1445bd	-0.5791891
233	0x3e321462	0.17390588
234	0x3db5505d	0.08853219
235	0x3eb57911	0.3544393
236	0x3e19399e	0.14963385
237	0x3f101061	0.5627499
238	0xbf3d1a9e	-0.7386874
239	0xbf561a47	-0.83633846
240	0x3e79fef7	0.24413668
241	0xbf1ccecb	-0.6125304
242	0x3eadb8f1	0.33930162
243	0xbf617215	-0.880647
244	0xbf73cfa0	-0.95238686
245	0xbf3e046f	-0.74225515
246	0xbe79730f	-0.24360298
247	0xbeb94ce1	-0.36191466
248	0x3f40428e	0.75101554
249	0xbf09255c	-0.5357263
250	0xbed4c19a	-0.41553956
251	0x3f0588c0	0.5216179
252	0x3ee4b53f	0.4466953
253	0xbf31a391	-0.6939021
254	0x3f12b5bd	0.5730856
255	0x3f582a11	0.8443919

model_1/conv1d_2/conv1d f4 [24, 1, 5, 9]
0	0x3daf5020	0.085602045
1	0xbdfec001	-0.124389656
2	0xbe029c3f	-0.12754916
3	0xbe56f69f	-0.20992516
4	0x3ee1e07f	0.4411659
5	0xbd271dfa	-0.040800072
6	0x3eb52887	0.35382482
7	0xbd2b04e9	-0.04175273
8	0xbf1bbd4d	-0.60835725
9	0xbe232cc1	-0.15935041
10	0xbc3b7871	-0.01144229
11	0xbd79f500	-0.061024666
12	0xbe5cdcbc	-0.21568578
13	0x3ec9f2f6	0.39443177
14	0x3d2b1bb5	0.04177447
15	0x3e29ff19	0.16601218
16	0xbec0c012	-0.37646538
17	0xbec366ea	-0.38164455
18	0x3d95d51e	0.073160395
19	0xbe9b0c89	-0.30283
20	0xbcb30bba	-0.021856178
21	0xbe770c8e	-0.24125883
22	0x3ee00fe3	0.4376212
23	0x3c0a2e0c	0.00843383
24	0x3d8ea721	0.06965471
25	0xbefdd01c	-0.49572837
26	0xbc23a684	-0.009988431
27	0xbd3a6a8b	-0.045511764
28	0x3cd31b5a	0.025769878
29	0x3db415f0	0.08793247
30	0xbe6035ed	-0.21895571
31	0x3e6f2862	0.23355249
32	0x3d0736e9	0.03301135
33	0xbdab790f	-0.083726995
34	0xbe2023ae	-0.1563861
35	0x3f07885b	0.52942437
36	0xbe261ff1	-0.16223122
37	0xbe0fd4b4	-0.14045984
38	0xbe15e2a7	-0.14637242
39	0xbe9d4a48	-0.30720735
40	0x3df2d9c8	0.11857945
41	0xbe88d0f2	-0.26721913
42	0xbebfdee8	-0.3747475
43	0xbe6ddbb2	-0.23228338
44	0x3e059dcc	0.13048476
45	0xbca4ef44	-0.020133622
46	0xbe0111c6	-0.12604436
47	0xbdd9cf5d	-0.106352545
48	0x3f12be39	0.57321507
49	0x3e3727d0	0.17886281
50	0x3ed7e28d	0.42165032
51	0xbf01146c	-0.50421786
52	0xbef08b60	-0.46981335
53	0x3e208a03	0.15677647
54	0xbd981a38	-0.07426876
55	0x3ce2622c	0.027634703
56	0x3d87dfab	0.06634458
57	0x3eac3c54	0.33639777
58	0x3e5af2cb	0.2138168
59	0x3dd43a02	0.103626266
60	0xbef37cd3	-0.4755617
61	0xbdfe1f70	-0.1240834
62	0x3e26c4d1	0.16286017
63	0xbe16c7da	-0.14724675
64	0xbe0b8c9e	-0.1362786
65	0x3dbb100c	0.0913392
66	0x3f1211d5	0.5705846
67	0x3e51788e	0.20456144
68	0x3ebac6fa	0.36479932
69	0xbe2fe957	-0.17178856
70	0xbe15ed43	-0.1464129
71	0x3e165045	0.14679058
72	0x3dc96ea3	0.098355554
73	0xbd5b1f01	-0.053496365
74	0xbda6b219	-0.08139438
75	0x3e887814	0.26654112
76	0x3e6c43c6	0.23072729
77	0x3e1614af	0.14656328
78	0xbe9575f8	-0.29191566
79	0xbde712a3	-0.112828515
80	0xbe1baeb2	-0.1520336
81	0x3e20e6a7	0.15712987
82	0xbddb31f9	-0.10702891
83	0x3c377f13	0.01119973
84	0x3f1df77b	0.6170575
85	0x3eb93d1b	0.36179432
86	0x3ec28190	0.37989473
87	0x3e5d6adf	0.216228
88	0x3e18fb58	0.1493963
89	0xbe3ebbbd	-0.18626304
90	0x3c9b0378	0.018922552
91	0x3d65c10b	0.056092303
92	0x3db945eb	0.09046539
93	0xbe824df0	-0.25450087
94	0xbed05368	-0.40688634
95	0xbc9a96bf	-0.01887071
96	0xbeb24e8d	-0.34825554
97	0xbf47f055	-0.7810109
98	0x3d14b4f8	0.036305398
99	0xbe47c364	-0.1950813
100	0x3d83c8ca	0.06434782
101	0x3d817fcb	0.06323203
102	0xbea6f7c0	-0.32610893
103	0xbe6512e7	-0.22370492
104	0x3e010c68	0.12602389
105	0xbe8791c2	-0.26478392
106	0xbf0cb375	-0.5496133
107	0x3d44235e	0.04788529
108	0xbbc6bc20	-0.0060649067
109	0x3d1422d8	0.036166042
110	0xbd2a8bab	-0.041637104
111	0xbcd58bd0	-0.026067644
112	0xbe252be4	-0.16130024
113	0x3e476458	0.19471872
114	0xbe5e979b	-0.2173752
115	0xbe8ac895	-0.27106157
116	0xb981615c	-0.00024677336
117	0x3cbadc88	0.022810236
118	0x3d9172b9	0.0710196
119	0xbdc36e9b	-0.09542581
120	0xbec5c4eb	-0.386268
121	0xbee48041	-0.446291
122	0xbdd4ee29	-0.10396988
123	0xbf1638a8	-0.586802
124	0xbec956ca	-0.39324027
125	0xbe82fd3a	-0.25583822
126	0x3c8a7879	0.016903149
127	0xbe1e471e	-0.15456817
128	0x3d87fc99	0.06639976
129	0x3d738700	0.059454918
130	0xbdf70eed	-0.12063394
131	0xbe62faef	-0.22166036
132	0xbf18d88f	-0.5970544
133	0xbd495087	-0.049149062
134	0xbec96af1	-0.39339402
135	0xbca75f0b	-0.020431062
136	0x3e305bd9	0.17222537
137	0x3ae79d91	0.001767086
138	0xbe1ef512	-0.15523174
139	0xbd419573	-0.047261667
140	0x3e1eaa3d	0.15494628
141	0x3f043507	0.51643413
142	0x3f0729c4	0.52798104
143	0xbe21fe00	-0.1581955
144	0x3dbbacd6	0.09163825
145	0xbdf8389b	-0.12120172
146	0x3d9c25ef	0.07624423
147	0x3e71dfa6	0.23620471
148	0x3dc425c8	0.09577519
149	0xbcc1310a	-0.023582954
150	0x3ec15529	0.37760285
151	0x3f56eba9	0.8395334
152	0xbea4a155	-0.32154337
153	0xbd440760	-0.047858596
154	0x3e092424	0.13392693
155	0x3c046f1f	0.008083134
156	0x3e8dbddb	0.2768391
157	0x3e399e2a	0.18126741
158	0x3debd97e	0.11516093
159	0x3daeb6be	0.08530949
160	0x3f17e8b9	0.5933948
161	0xbf02454c	-0.5088699
162	0xbd3a96aa	-0.04555384
163	0xbd80a42c	-0.06281313
164	0xbe07deab	-0.13268535
165	0xbe52a0bc	-0.20569128
166	0xbe56852b	-0.20949237
167	0xbe01e379	-0.1268443
168	0x3ed5f996	0.4179198
169	0x3f11316a	0.56716025
170	0xbeb13d72	-0.34617192
171	0xbe3273e1	-0.17427017
172	0x3e425934	0.18979341
173	0x3ccfe88a	0.025379438
174	0xbe6a1c0e	-0.22862265
175	0xbda4df90	-0.08050454
176	0x3ea18b24	0.31551468
177	0x3cf31438	0.029672727
178	0x3f02378e	0.5086602
179	0xbc4059d2	-0.011740165
180	0xbaa347fe	-0.0012457368
181	0x3d6e6982	0.05820609
182	0x3e1beda0	0.15227365
183	0xbea23175	-0.31678358
184	0xbe19e085	-0.15027054
185	0xbca2fa23	-0.019894665
186	0x3edd5341	0.4322758
187	0xbe0146cb	-0.12624662
188	0xbecc11c7	-0.39857313
189	0xbdeb7b48	-0.114981234
190	0x3dd04173	0.101687334
191	0xbd2d8406	-0.042362235
192	0xbeacc81a	-0.33746415
193	0xbe235603	-0.1595078
194	0xbdace28e	-0.084416494
195	0x3e270cf9	0.16313542
196	0x3de54c5b	0.11196204
197	0xbe2683d6	-0.16261229
198	0x3dd27c90	0.10277665
199	0xbdb02079	-0.08599944
200	0x3d85476d	0.06507764
201	0xbe891f12	-0.26781517
202	0x3d05c968	0.03266278
203	0x3e0395e9	0.12850155
204	0xbeaf2ef0	-0.34215498
205	0x3dc3af41	0.095549114
206	0xbec13241	-0.37733653
207	0x3cb5af6d	0.022178376
208	0xbd5cfdda	-0.05395303
209	0x3d846661	0.0646484
210	0xbe718a70	-0.23587966
211	0x3e45ded1	0.19323279
212	0xbdceb3d7	-0.100928955
213	0xbea9b96d	-0.3314928
214	0x3e5e2495	0.21693642
215	0xbe86708f	-0.2625775
216	0xbd1197e2	-0.035545237
217	0xbd89e705	-0.067335166
218	0xbe51688c	-0.20450038
219	0xbe51b3a3	-0.20478682
220	0x3e355e03	0.17711644
221	0xbe7d0bc8	-0.24711525
222	0xbf2390ea	-0.63892996
223	0xba9014ff	-0.0010992585
224	0xbdd5d840	-0.10441637
225	0x3cf11a7a	0.02943157
226	0x3d8e7e97	0.06957739
227	0xbd8bb1ed	-0.06821046
228	0x3db71268	0.089390576
229	0x3d940d60	0.072291136
230	0xbe75c806	-0.24002084
231	0x3eb9daf2	0.36299855
232	0x3deea1ea	0.116519764
233	0xbea856c5	-0.328787
234	0x3e083e47	0.13305007
235	0xbb6a44f2	-0.003574666
236	0xbe3e44ec	-0.18580979
237	0x3dbb7447	0.091530375
238	0xbdb226e4	-0.08698824
239	0xbe7b68a4	-0.24551636
240	0x3e29fded	0.16600771
241	0xbec3002f	-0.38086078
242	0xbdaa5091	-0.08316148
243	0x3e15cb67	0.14628373
244	0x3cf347d1	0.02969733
245	0xbe2078c7	-0.15671073
246	0x3eb683b6	0.35647362
247	0x3ce855ba	0.02836119
248	0x3b630766	0.003464186
249	0xbe21f19b	-0.15814821
250	0xbf1d1dfc	-0.6137388
251	0x3e26abce	0.16276476
252	0xbc2548ad	-0.010088128
253	0xbe3ce6f4	-0.18447477
254	0xbd81f73b	-0.063459836
255	0x3eb2e66d	0.34941426

model_1/conv1d_3/conv1d f4 [48, 1, 3, 24]
0	0x3d86ead9	0.065877624
1	0x3d48b4a1	0.049000386
2	0xbe170202	-0.1474686
3	0x3d4f7847	0.050651815
4	0xbdeec324	-0.11658314
5	0xbd6cad9c	-0.057782754
6	0x3dc7c497	0.097542934
7	0x3e2bedbb	0.16789906
8	0x3e4aa3ee	0.19789097
9	0x3e57fa4a	0.21091571
10	0x3d84b268	0.06479341
11	0xbe42614b	-0.18982427
12	0x3e414007	0.1887208
13	0x3e11daef	0.14243673
14	0xbddd9ef4	-0.108213335
15	0xbebaad6b	-0.36460432
16	0x3e321751	0.17391707
17	0xbec08174	-0.37598765
18	0x3e346e1a	0.17620125
19	0xbced5b12	-0.02897409
20	0xbe5cf4f3	-0.21577816
21	0xbe068a1f	-0.13138627
22	0x3d91bf38	0.0711655
23	0x3d7d79ac	0.061883613
24	0x3e2cbc13	0.1686862
25	0xbe48c939	-0.1960801
26	0x3beb9c3c	0.0071902554
27	0xbde76ae6	-0.11299686
28	0x3d881055	0.0664374
29	0x3e1719cc	0.14755934
30	0x3d923ef3	0.07140913
31	0x3d130fd6	0.035903774
32	0xbcbd9751	-0.023143442
33	0x3e27da1a	0.16391793
34	0x3e09640b	0.1341707
35	0xbc975f89	-0.018478172
36	0xbc2d537d	-0.010578987
37	0x3e296718	0.16543233
38	0xbdeb8356	-0.1149966
39	0xbe868505	-0.2627336
40	0x3d5e7bf4	0.05431743
41	0xbdfe01fa	-0.12402721
42	0xbcb92e4e	-0.022605088
43	0xbd94b9e5	-0.07262019
44	0xbe47c8c3	-0.19510178
45	0xbe3ef6eb	-0.18648879
46	0x3e92a5f9	0.28642252
47	0xbdc66d29	-0.096887894
48	0xbd412ea1	-0.04716361
49	0xbe270b04	-0.16312796
50	0x3e0c5baa	0.13706842
51	0xbe43d81b	-0.19125406
52	0x3dac5a69	0.08415682
53	0x3e1ebac1	0.15500928
54	0xbd8d721d	-0.06906531
55	0x3d43304c	0.04765348
56	0x3e207cdb	0.15672629
57	0xbde311e0	-0.11087394
58	0x3ca92ad1	0.0206503
59	0xbecdc890	-0.4019208
60	0x3d32b73b	0.043631773
61	0x3e6a19b9	0.22861375
62	0x3dd2c21b	0.10290929
63	0xbe6ee22b	-0.23328464
64	0x3d89293f	0.0669732
65	0xbddfd16b	-0.10928615
66	0x3900456c	0.00012232893
67	0xbc97b084	-0.018516786
68	0xbe47dc0b	-0.19517533
69	0xbe145ca8	-0.1448847
70	0x3ea6a4f2	0.32547718
71	0xbda03d60	-0.07824206
72	0x3e29cdda	0.16582432
73	0xbe776bf8	-0.2416228
74	0x3e41cd70	0.18926024
75	0xbd32bf51	-0.043639485
76	0xbe111bc6	-0.14170751
77	0xbe21a72b	-0.15786426
78	0xbe01285e	-0.12613055
79	0xbcb232ae	-0.021752682
80	0x3b314a83	0.002705247
81	0xbce0ea21	-0.027455391
82	0xbe443264	-0.19159847
83	0xbe8f7f8e	-0.28027004
84	0xbe68104a	-0.22662464
85	0x3cd6644c	0.026170872
86	0x3d6a080e	0.057136588
87	0x3dbf9ada	0.093557075
88	0xbedcdec1	-0.43138698
89	0xbe8be4b5	-0.27322927
90	0xbcaea928	-0.021320894
91	0x3dfeacd1	0.12435306
92	0x3eb5cac2	0.35506254
93	0x3df1764c	0.117901415
94	0x3e72a0bc	0.23694128
95	0xbe11df99	-0.14245452
96	0x3d58f4e1	0.05296791
97	0xbcee27ab	-0.02907165
98	0xbdade1ed	-0.084903575
99	0x3e203023	0.15643363
100	0xbe148026	-0.1450201
101	0xbd885d65	-0.066584386
102	0xbe85a84e	-0.2610497
103	0x3d9bfdc8	0.07616764
104	0xbe026b0b	-0.12736146
105	0xbe774a13	-0.24149351
106	0xbd382db3	-0.044965457
107	0xbe4e2ad9	-0.20133533
108	0xbea1ccef	-0.31601664
109	0x3eb514f7	0.35367557
110	0x3caf722d	0.021416748
111	0x3d025914	0.031823233
112	0xbe29b3fb	-0.16572563
113	0xbe189fed	-0.14904757
114	0xbdea1d7c	-0.11431405
115	0x3e37d7a9	0.17953362
116	0x3e52695f	0.20548008
117	0x3c2fa06f	0.010719403
118	0x3e00ab64	0.1256538
119	0x3d1255d5	0.035726387
120	0x3eaea568	0.3411057
121	0x3e4d6553	0.20058183
122	0xbe073f08	-0.13207638
123	0x3daa061c	0.083019465
124	0xbe423f61	-0.1896949
125	0xbbce3b7b	-0.0062937117
126	0xbda9d934	-0.08293381
127	0x3bb0c2cd	0.005394316
128	0x3ca26fbe	0.019828673
129	0xb8415130	-4.6090398e-05
130	0xbdbbf45a	-0.09177466
131	0x3cad8ce1	0.02118534
132	0xbeae35d2	-0.34025437
133	0x3e44821f	0.19190262
134	0x3d3de654	0.046362236
135	0xbdf4b314	-0.11948219
136	0xbde91e6e	-0.11382757
137	0x3df441f5	0.11926643
138	0x3d8ab1b4	0.067721754
139	0x3e5bdd65	0.21471174
140	0x3e9c91e4	0.30580056
141	0x3e9511a9	0.29115036
142	0x3e37a4f1	0.17934014
143	0x3df1c11a	0.11804409
144	0xbd6c8005	-0.057739276
145	0x3e02965a	0.12752667
146	0xbd15768b	-0.036490005
147	0xbf12ed8b	-0.5739371
148	0xbe0500b9	-0.12988557
149	0xbd34f241	-0.044176344
150	0x3e0ef309	0.13959898
151	0xbda7c2d9	-0.08191461
152	0x3df0d629	0.11759598
153	0x3e18b357	0.14912163
154	0xbc0c48a1	-0.008562238
155	0x3d59ab17	0.05314168
156	0x3e09bf72	0.13451937
157	0xbeb7d5e8	-0.35905385
158	0xbe59d434	-0.21272355
159	0xbe8afe0b	-0.27146944
160	0x3e78aeb7	0.24285398
161	0x3db1e926	0.08687048
162	0xbe9eabcb	-0.30990443
163	0xbe48af0c	-0.19598025
164	0x3d68ad4b	0.05680589
165	0xbea1aa66	-0.31575316
166	0xbe819eba	-0.2531641
167	0xbdcac3cc	-0.099006265
168	0x3d6b181f	0.05739605
169	0x3e0fbe1e	0.14037368
170	0xbe22e4ca	-0.15907589
171	0xbe786fd7	-0.24261414
172	0xbe00258e	-0.12514326
173	0xbe14997c	-0.14511675
174	0x3e558894	0.20852882
175	0xbdcc91ff	-0.09988784
176	0x3dcbecc5	0.099572696
177	0x3df58f98	0.11990279
178	0x3d58751c	0.05284606
179	0x3d861bf7	0.065483026
180	0x3e15160f	0.14559196
181	0xbdeca842	-0.1155553
182	0x3c7db97b	0.0154861165
183	0xbe1103f5	-0.14161666
184	0x3dc661fa	0.09686656
185	0x3d2d6ab9	0.042338107
186	0xbe6d9707	-0.23202144
187	0xbddf4e66	-0.10903625
188	0xbdf258ff	-0.11833381
189	0xbe83f9ad	-0.25776425
190	0xbea04d11	-0.31308797
191	0xbe91d45b	-0.28482327
192	0x3dafb5ec	0.08579621
193	0x3e1ca13d	0.15295883
194	0xbe9146c5	-0.28374305
195	0xbe29464f	-0.16530727
196	0x3dd31703	0.103071235
197	0xbd0df054	-0.034653023
198	0x3c2cb4c3	0.010541144
199	0x3d15880a	0.03650669
200	0xbc9de0f3	-0.019272303
201	0x3da42424	0.08014706
202	0xbe04565c	-0.12923568
203	0x3e9a97c7	0.30193922
204	0x3deced97	0.11568754
205	0xbe2323e5	-0.15931661
206	0x3db5b753	0.08872857
207	0xbd975c57	-0.07390659
208	0x3e083c12	0.13304165
209	0x3d37690c	0.044777915
210	0xbe62d41d	-0.22151227
211	0xbdd9c76e	-0.10633741
212	0xbe8104a4	-0.25198853
213	0xbe4b47fd	-0.1985168
214	0xbeba775d	-0.36419192
215	0xbec2584e	-0.37957996
216	0x3de548c6	0.11195521
217	0xbdff5611	-0.12467588
218	0x3ed8ae8e	0.42320675
219	0x3ecb9b1a	0.3976677
220	0x3e0c44ab	0.1369807
221	0x3e1ef54a	0.15523258
222	0x3c7497ba	0.014928753
223	0x3df75606	0.120769545
224	0xbe1b7ed6	-0.15185103
225	0xbe3dcd7d	-0.18535419
226	0x3e0fd5ab	0.14046352
227	0x3e00a0ef	0.12561391
228	0xbcbc5f3f	-0.022994636
229	0x3ec5ce17	0.38633797
230	0xbb12985f	-0.0022368652
231	0x3e416ea5	0.18889864
232	0xbe130804	-0.14358526
233	0x3d6ae056	0.05734285
234	0x3e2c3cdd	0.16820092
235	0x3e93e5e2	0.28886324
236	0x3eb59d25	0.35471454
237	0x3e895a65	0.26826778
238	0x3e7d090c	0.24710482
239	0x3e954c6c	0.29159868
240	0xbe039554	-0.12849933
241	0x3ced9bf3	0.029005026
242	0x3ee912bc	0.45522106
243	0x3e0fc6de	0.14040706
244	0x3d93163f	0.071819775
245	0x3d9669c3	0.07344391
246	0xbe4a3a1f	-0.19748734
247	0xbddb800e	-0.10717784
248	0x3cf79ac1	0.03022516
249	0xbdf565f8	-0.119823396
250	0x3bbb79da	0.005721313
251	0x3dca23e0	0.09870124
252	0x3d9de624	0.077099115
253	0x3ebdac28	0.37045407
254	0x3e7b298e	0.2452757
255	0x3e7711b5	0.24127848
